RDP_TripleNN.onnx (onnx, 105956 bytes, 20 tensors)

RDP_TripleNN_1/Residual_Layer_1/Cast/ReadVariableOp:0 f4 [96, 64]
00000000: a3e1 923d 93b6 0ebe 979d 433e 966c 31bd
00000010: 753a e73d c83a 263e 65ac 25be 35ab 68bd
00000020: ec2f 2e3e 20e8 be3d fbc6 0abe 86b4 9fbd
00000030: 187f 6ebc 406f 33be 747c 013e 43d8 663c
00000040: 937f 8a3c 255f 3dbe 371c 7ebd 6c50 51bd
00000050: 2623 b3bd 78c2 233e 3c79 26b9 1523 7dbd
00000060: 8713 a73d aa9c 043d 4948 bc3d 75f3 483e
00000070: c371 6cbd f722 aebd 1bd8 313e 5394 d63d
00000080: a4f1 09be 2941 03be 54ff 1dbe 850b 353e
00000090: 5dc4 333e 1732 013e 76e0 b33d 9e12 b3bd
000000a0: a147 5b3d b320 443e 9e75 153b 5f4a 9dbd
000000b0: 9117 99bc 8d30 9ebc 7114 4ebd ed4f a4bd
000000c0: 22cf 273d d98e 393e 3567 eebd 5394 54bd
000000d0: dbb6 813d 2c64 9e3c 729a cc3d 7f91 49be
000000e0: 3eb9 abbd 431b d63d b3f4 153e d26a be3d
000000f0: 705d 7fbd 461c c93d 2bda 933d 4351 893d
00000100: 83e8 c1bc dfb8 8e3d d065 0abd 9a0b c03d
00000110: ed2f 913d dfae 0bbe db56 f0bd 6ef7 353c
00000120: 3ae0 983c 7b71 10bd e910 3abb 839e 1e3e
00000130: b4d7 78bd 0d35 eebd bc65 05be 3f85 77bb
00000140: ae34 9fbd 2dd3 863e 1a69 aebd 2b23 653d
00000150: d9f1 83bd 3c0d 403a aba1 78bd a80e 9b3d
00000160: ce3b 383e 855a 23be f388 403d ad22 c93d
00000170: 2e7f b9bd 50cd 50bc a5d4 953d 7637 c7bd
00000180: e41c ec3b 2ee9 03be a98d 4f3d 031c d0bd
00000190: 48e2 1c3e 476c 11be 9dea 183e a397 243e
000001a0: 319c a93d 141a 973c 9295 2b3e a68f 943d
000001b0: 7881 81bd 5212 3dbb 6551 3bbe a46d e93d
000001c0: a344 653c 8fa6 9dbd b495 11bd edb8 c73c
000001d0: a4a4 f23c cedf e43c 106a 1a3e 3eab 453e
000001e0: f0b4 163d 44b3 4abd d73c 863d f730 a73d
000001f0: 9107 253e 0d9b 97bd a1cf 5dbd 1cc5 52bd
00000200: b4b1 8d3d 2b70 8fbd c7c9 d43d 53d6 fabd
00000210: 7718 5c3e f61e 6e3d 0be7 9dbd 9774 95bd
00000220: bb10 09be f574 a23d d3c3 303e 58ca a73d
00000230: 3f1f 1dbc 52ed fa3c 92a6 c8bb 836b 983d
00000240: eb09 8a3d b4bd c7bd 5073 91bd e7bd 2a3d
00000250: 1d9b cd3d a5cb 0bbe d691 483c 377d f33c
00000260: 2c19 03bd bd7c 1ebd 9843 d2bd 2b79 bc3d
00000270: fb5a 40be 6c1e 613e 65dd 093e f89f 05be
00000280: 4fcb ec3d 57fc 40bd fe61 513c a8ba b43d
00000290: 5cb6 bd3d edd7 c6bd 5846 203e 24d3 a5bc
000002a0: 15de 1a3e ff39 fdbd 779b 053d 1780 6cbd
000002b0: fc1c de3d 88b7 0a3d b369 12bb c239 923d
000002c0: bc24 78bb 8e91 f7bc ba0d 2b3d d240 c13d
000002d0: 4938 d33d 3f68 84bd 62ee d9bd 6f62 2ebe
000002e0: ef58 d9bd 0930 63bc 051c a83c da5a d93d
000002f0: 21d4 8fbc cfbe 633b 1c39 153e 90a8 933d
00000300: 6fc9 8b3c b5be a43d 9cde 0dbe 59cc f5bd
00000310: ed41 52be 201d 323d c292 afbc 2fa1 3d3e
00000320: 14d0 d93b 06cc a4bd 0210 83bc 1f07 ad3c
00000330: 0e2a c7bd 91f4 f93d 2f7a bebd aea9 84bd
00000340: 02ab 8fbd 056d 773d 254b 26bc 436a 7d3d
00000350: 00cb 34be ffa2 7cbd 0290 9c3c 51c1 6a3d
00000360: 7b4e 853c 505f b83d dba8 5d3e 5eec f2bd
00000370: 6ac7 58bc 8d8b fabd 0711 a5bd da85 9d3d
00000380: 090a d13d cc6d 91bd 3465 1a3d 9669 17be
00000390: babf 4bbe 77cf 473c b9bc fc3d 00df 23be
000003a0: b146 be3d 7db4 10bd 86b6 2b3e 6031 563e
000003b0: e603 0b3e 784a 04bd 0e56 10be ca6f 733e
000003c0: 285c 1bbe 7671 56be 2f82 b9bc 65e3 253d
000003d0: 2aaa ffbd d643 15be 7ddf 3cbd f0d4 d13d
000003e0: cbb0 81bc 2c85 35be 9d8f 13be ee6f 34be
000003f0: 80dd 623d 993c d0bd da66 f4bb a82c 13bd
0.07171943 -0.13936834 0.19103085 -0.043316446 0.11290447 0.16233361 -0.16179045 -0.0568039
0.17010468 0.09321618 -0.13552468 -0.07798104 -0.014556669 -0.17522907 0.12645131 0.014089647
0.016906535 -0.18493326 -0.062038627 -0.051102087 -0.087469384 0.15992153 -0.00015876157 -0.061801035
0.081580214 0.03237597 0.09193475 0.19624121 -0.05772568 -0.08502763 0.17367594 0.10477509
-0.13471085 -0.12817825 -0.15429431 0.17680176 0.17555375 0.12616764 0.08783047 -0.08743785
0.053535108 0.19153099 0.00228057 -0.07680201 -0.018687995 -0.01931026 -0.050312463 -0.08023057
0.04096902 0.18120898 -0.11640779 -0.051899265 0.06333705 0.019334875 0.099903956 -0.19684409
-0.083849415 0.104544185 0.14644127 0.09297718 -0.06234497 0.09819846 0.072193466 0.067049526
-0.02367044 0.06968855 -0.033788502 0.09377213 0.07089219 -0.13640927 -0.11735316 0.011106355
0.018661607 -0.035264473 -0.0028391427 0.15490155 -0.060752586 -0.116312124 -0.1302709 -0.003776863
-0.0777372 0.2633299 -0.0851614 0.055941742 -0.06442613 0.0007326191 -0.060701054 0.07571155
0.17991564 -0.15952499 0.047005605 0.09821067 -0.09057461 -0.012744263 0.07315949 -0.09727375
0.0072055925 -0.1288192 0.050672207 -0.10161593 0.15320694 -0.14201461 0.14933248 0.1607347
0.08281744 0.018445052 0.16756275 0.07253961 -0.06323522 -0.002885003 -0.18292768 0.113978654
0.013993415 -0.07697784 -0.03554316 0.024380172 0.029619522 0.02793875 0.15079522 0.19303605
0.03679365 -0.049487367 0.06554573 0.08163636 0.16116168 -0.074026205 -0.05415309 -0.05145751
0.0691866 -0.07003816 0.103900485 -0.1224791 0.21493708 0.058134995 -0.077100836 -0.072976284
-0.13385288 0.07932464 0.17262201 0.08192891 -0.009589969 0.030630741 -0.0061233724 0.07442381
0.06740173 -0.0975298 -0.07102072 0.04168501 0.10039351 -0.13651903 0.012241801 0.029722793
-0.032006428 -0.03869318 -0.10266799 0.092027985 -0.18784706 0.21984261 0.13463362 -0.13049304
0.115622155 -0.04711565 0.012779711 0.08824664 0.09263298 -0.09709153 0.15651834 -0.020242281
0.1512378 -0.123645775 0.032618966 -0.057739343 0.10845372 0.033866435 -0.0022340834 0.07139923
-0.0037863692 -0.030220773 0.041761138 0.094361916 0.1031347 -0.06465196 -0.10641171 -0.17029737
-0.10612666 -0.013866433 0.020521173 0.10613032 -0.017557206 0.0034751182 0.14572567 0.07209885
0.017063824 0.08044187 -0.1385445 -0.12001867 -0.20532961 0.043484807 -0.021432284 0.18518518
0.0066471193 -0.08046727 -0.015998844 0.02112156 -0.09724818 0.122048505 -0.093006484 -0.06477676
-0.07015039 0.060406704 -0.010149752 0.061868917 -0.17655563 -0.061678883 0.019111637 0.057313267
0.016272774 0.090025544 0.21646444 -0.1186149 -0.013231138 -0.122336484 -0.08059888 0.07691546
0.10206992 -0.0710102 0.03769417 -0.14786372 -0.19897357 0.01219546 0.123406835 -0.16003036
0.09290827 -0.035328377 0.16768846 0.20917273 0.13575706 -0.03229758 -0.14095327 0.23773113
-0.15171874 -0.2094172 -0.022645084 0.040500063 -0.12483628 -0.14576659 -0.046111573 0.10245693
-0.015831372 -0.17726582 -0.14410253 -0.17620823 0.05538702 -0.10167808 -0.00745855 -0.03593126

RDP_TripleNN_1/Residual_Layer_1/BiasAdd/ReadVariableOp:0 f4 [64]
00000000: 30e1 2fbc 301c bebd fd30 053e 9658 bc3c
00000010: 9184 dabc ce4c 813d b7df c039 5539 9bbc
00000020: a3dd 88bd 9594 f03d b053 e63d bf8b 4c3d
00000030: 64bc 003c 2b8f a6bd 11e9 a13d 051a 9c3d
00000040: d83a 10be 3988 21bd cef3 1d3d a738 923d
00000050: 07a9 0cbe 87e1 95bd adf8 5b3e c84d 003e
00000060: 164c b03c df3a a73d e797 9d3d 7d56 5d3d
00000070: a339 a73d 0146 383d 1be2 79bd 4ade 003e
00000080: 06d0 f7bd c1aa 793d 6da3 8c3d 7212 14bd
00000090: e9f8 b83d 9722 d8bd 4f26 653d cfc1 19be
000000a0: 17bc 6c3d a2d7 543e ce63 dcbc c2d5 9bbd
000000b0: fcff 09bc 736e 29be ea06 a23d 4266 f43d
000000c0: 8ddc 18bd 6adb c43d b4ae 18bd 7cff 9bbd
000000d0: fe15 53bc 14f6 803e 4d57 82bd f0ea 673e
000000e0: ed6f febd 4ea3 94bd b87e 86bd e216 8dbc
000000f0: bb61 57be 3d99 a5bd bc0b ca3c 6bca a73d
-0.010734841 -0.0928272 0.13006969 0.02299146 -0.02667454 0.063134775 0.00036787774 -0.018948236
-0.06682899 0.1174709 0.11246431 0.04993796 0.007857416 -0.08132776 0.07905782 0.0762215
-0.14084947 -0.039436553 0.03856259 0.07139712 -0.13736354 -0.073184066 0.21481581 0.12529671
0.021520656 0.08165526 0.07694989 0.05403756 0.0816529 0.044988636 -0.061006647 0.12584797
-0.12100224 0.06095386 0.068671085 -0.036150403 0.09031851 -0.105534725 0.055944737 -0.15015338
0.057796564 0.20785382 -0.02690306 -0.076091304 -0.008422848 -0.1654604 0.07911475 0.11933567
-0.03731971 0.096121624 -0.037275985 -0.07617089 -0.012883661 0.25187743 -0.063643076 0.22648215
-0.12423692 -0.072577104 -0.065671384 -0.017222825 -0.21033375 -0.080858685 0.024663799 0.08192905

RDP_TripleNN_1/Output_Layer_1/Cast/ReadVariableOp:0 f4 [18, 3]
00000000: dafa 8e3e 45cb a33d c0c2 763d a3ab 05bf
00000010: 6b84 a2be a411 83be 3cec c73c 07e1 a8bd
00000020: 7c0f 6bbe 7ee4 893e 2bcf ba3e 2dfc f3be
00000030: 220f d43e 541c 90bd 041e f93e 38f4 1f3e
00000040: 25ba 0ebe aab0 b6bd f435 aabe 793f c9bb
00000050: 8339 25bd ad92 203e 78c0 aabd 007c 5bbd
00000060: a0e2 403b 652b d4be 0852 2a3e 75b6 44be
00000070: 48b6 bebe a6d1 853d 1597 963d c94e 7d3e
00000080: 8f7e 67be 32da 1a3e 22d9 21bf 489a 6e3e
00000090: ab0b 643e 65f6 963e 6287 d7be 5f26 cdbd
000000a0: 1358 35be bdf0 0a3e ba16 f0be 2cf7 02bf
000000b0: 9725 64be 06a2 45be 8ae6 193e 9134 90be
000000c0: 15d0 903e c206 013f 7c7b 413e 6bd4 eb3d
000000d0: 3a12 aa3e d33f 2a3d
0.2792576 0.07997755 0.06024432 -0.5221502 -0.31741652 -0.25599396 0.024404638 -0.082460456
-0.22955126 0.26932138 0.36486182 -0.47653332 0.41417795 -0.07036653 0.48655713 0.15620506
-0.13938196 -0.08920415 -0.33244288 -0.0061415997 -0.04033805 0.15680952 -0.08337492 -0.053585052
0.0029431954 -0.41439357 0.16632855 -0.19210227 -0.37248445 0.06534128 0.07353035 0.24737085
-0.22606872 0.15122297 -0.63221943 0.23301041 0.22270076 0.2948486 -0.42095476 -0.10017084
-0.17709379 0.13568397 -0.4689234 -0.51158404 -0.22279964 -0.19300088 0.1502935 -0.28165105
0.28283754 0.50400937 0.18894762 0.11515125 0.3321703 0.041564774

RDP_TripleNN_1/Output_Layer_1/BiasAdd/ReadVariableOp:0 f4 [3]
00000000: c414 4e3e 4d0a d6bd 4e8d d4bd
0.20125109 -0.104511835 -0.10378514

RDP_TripleNN_1/Dense_Layer_5_1/Cast/ReadVariableOp:0 f4 [30, 18]
00000000: 6851 5f3c 9b5b b83d dcf0 4fbe 2607 75be
00000010: 0ab3 9cbd 2246 8bbe 15aa 4e3e 9ae3 81bd
00000020: d1b9 46bd 6ea4 d13d 06a4 70be a202 2c3d
00000030: a6c3 38be a900 403e 1ca0 423e 05f6 efbd
00000040: 6128 21bd 9b22 23be c168 a03c f769 f23d
00000050: 5e08 3fbe 8e2c 57bd 4f54 943e 6ce1 d73d
00000060: bfca 6ebe cd58 853d 931e 8d3e 8709 7c3c
00000070: 0998 10be 79b2 073e e175 08bd 9f00 6c3d
00000080: fbe8 323d f35a 43be 2cbf 2bbe 745b 7ebd
00000090: b9ea 18be 1da1 023e bbf0 253e 9f88 f43c
000000a0: 823d adbd 5ea1 8abe 65db 1c3c 9742 99bd
000000b0: 226d 31be b2fd 91be e223 b43e 1af4 763d
000000c0: 6707 963e 95dc ffbd 1a05 99be 3b29 afbc
000000d0: 8aa8 0b3e 8010 193e 6706 5f3e 0687 193d
000000e0: f4da 393e d33a db3d ce18 91be 7921 a8be
000000f0: f24d b9bd ef32 d5bd a3a3 b3bd bb60 95be
00000100: 7dc4 aa3e 4aae 17bd 6db8 2c3e 57b9 74be
00000110: 0a96 8cbd 52be 023e 9386 3e3d 8704 5a3c
00000120: 280d 613e 5770 a5be d5a6 303e bfed 053e
00000130: bbb9 043e 3a4c 123e b999 e0be 237a c43d
00000140: 357d a03e efdd 023e ec6e 6ebe f2c0 e8bd
00000150: 1eb8 823d cef5 bdbe d6e6 febd 3e32 47bd
00000160: 19c4 8dbd 78bc 83bd d51a a93d c141 e2bd
00000170: 6d62 4d3e 3267 42be 0486 0b3e 751b d83d
00000180: 9482 85bd df8a 193e ddf8 4dbe 32f0 51bc
00000190: 2368 d5bd e75f 1b3c 7b31 9e3e c876 73be
000001a0: e85b c1be 32b9 33be 1f03 e0bd d235 b9be
000001b0: 8aa7 bbbd c2dd cdbd e534 59be 796c ae3e
000001c0: 2a4b 1bbe d0c5 1fbe 91a6 c73c c1ad 77be
000001d0: fac0 8dbd 55c0 4bbe d966 113e 5f36 f53c
000001e0: d3ad a6bc 72e6 36be 08d8 2abe e480 0e3e
000001f0: 3890 e93d 8b1d 623e 6632 713e 86bb d1be
00000200: d69d a23d 6a3d cb3d 0f2a 2bbd 95a8 6b3e
00000210: 9182 99bc b82a c63d 765e bdbc 502c 78be
00000220: fcc9 bcbc 86b0 8f3c ae40 9dbd b265 a8bd
00000230: fe5a 75bc 90d4 47be 36c0 11be b5cf ebbd
00000240: 36db 213e 5149 0a3c bf9c 913d fdbd dd3d
00000250: 3339 543e 0bf2 213e cc7d 553d 3bb5 7e3d
00000260: fcf9 5e3e f978 203e 86c2 9a3d a1d1 073f
00000270: 677d edbc 79ff 62bd bb5e 1f3d 6eda 95be
00000280: f02e 98bd a743 b2be 23d9 a93d a4ee 133e
00000290: 4099 4d3e a7d0 193e 62a7 853e cdcc 3d3d
000002a0: 7e77 4abe 1a87 c33d 416f 333e 276d 233e
000002b0: 676a e3bd 9980 ef3e 566f aa3d 3b19 6fbd
000002c0: bf35 e83d 29f1 27be 0b68 17be 8cb3 91be
000002d0: 4002 c3be ba37 3fbe da27 5ebe c6f0 c53c
000002e0: 4941 d1bd 53bf b53c c87d 253e 5b22 44be
000002f0: 40f2 96bd c47c efbd 6651 6b3d ae70 2cbe
00000300: 93f1 7a3e 7782 edbd 9420 9ebd 71b0 8b3d
00000310: 95f0 443e 0854 be3e ae23 52be 0950 c73e
00000320: 9fba eabd dfc2 b7b9 1ce1 203e ee78 b6be
00000330: a28b b33e ba9a 88be c4be 463e 3413 543e
00000340: 8a4b 7b3e 6baa 2fbe bc77 f4bc 4298 f03d
00000350: b32d d03c 1c36 0b3e c209 e73d 1165 5e3e
00000360: fad2 513e c8b8 f43d eb66 403e 1327 1d3e
00000370: 888a e9bd 82f2 b83e 8431 f93d e26d 693e
00000380: 21ef 14be 3ac6 87be 409e f73c 8708 9e3e
00000390: 571d bf3d 0f3d 9dbd 4867 adbe 76b2 4b3e
000003a0: 3d72 303e d230 a13e 9ac3 bbbd 0d3d a93d
000003b0: d475 e2bc b993 ca3e d4e1 35bd 6b1c 163d
000003c0: 4dab 2bbc 6f97 5dbe 3923 2bbe 43a6 b03d
000003d0: 8f0e 9c3e d8bd 92be 6a29 e93e a450 24be
000003e0: e708 a6be fc33 303d 06ae 94bc 0c89 f5bc
000003f0: 73c4 103e 43ce 1dbe 92b6 e7bd bef7 aebd
0.013630249 0.09001847 -0.20306724 -0.23928508 -0.076513365 -0.27201945 0.20182069 -0.0634224
-0.048517052 0.102364406 -0.2350007 0.0419947 -0.18043384 0.18750252 0.1900639 -0.117168464
-0.03934515 -0.1593117 0.0195812 0.118366174 -0.18655536 -0.052532725 0.28970572 0.10541043
-0.23319529 0.06511078 0.2756239 0.015383131 -0.14120497 0.13251676 -0.033315543 0.05761778
0.04367922 -0.19077663 -0.16772145 -0.062098935 -0.1493329 0.12756772 0.16205113 0.029850302
-0.08458997 -0.27076238 0.009573792 -0.07483404 -0.17326787 -0.28513867 0.35183626 0.060291387
0.29302523 -0.124932446 -0.29886705 -0.021381965 0.13638511 0.149477 0.21779786 0.037482284
0.1814993 0.10704579 -0.28339237 -0.32838038 -0.0904807 -0.104101054 -0.087714456 -0.29175362
0.33353034 -0.03703145 0.16867228 -0.23898827 -0.06864555 0.12767914 0.04651506 0.013306743
0.21977675 -0.3231227 0.17251141 0.13078974 0.12961476 0.1428689 -0.4386728 0.09593608
0.31345525 0.12779973 -0.23284501 -0.113649264 0.06382774 -0.37101597 -0.12446372 -0.0486319
-0.06922168 -0.06432432 0.08257071 -0.11047698 0.20057078 -0.18984678 0.13625342 0.10552112
-0.065190464 0.14994381 -0.20114465 -0.012813615 -0.10420253 0.009483314 0.30897126 -0.2377578
-0.3776543 -0.17551115 -0.10938095 -0.36173874 -0.09162815 -0.100520626 -0.21211584 0.34067133
-0.15165392 -0.15602803 0.024371417 -0.24187376 -0.06921573 -0.19897588 0.1419939 0.029933153
-0.020346558 -0.17861345 -0.16683972 0.13916355 0.11404461 0.22081582 0.23554382 -0.40963382
0.07940261 0.09923823 -0.041788157 0.23013528 -0.018739017 0.09676117 -0.023116332 -0.24235654
-0.023045532 0.017540228 -0.07678352 -0.08222522 -0.0149753075 -0.1951468 -0.14233479 -0.11514226
0.15806279 0.008440332 0.07109975 0.10827253 0.20724945 0.15814988 0.052121922 0.062184554
0.21775049 0.15671147 0.07556634 0.53054243 -0.02899046 -0.05541942 0.0389087 -0.2926821
-0.074308276 -0.3481724 0.08293369 0.14446503 0.20077991 0.15021001 0.26104265 0.04633789
-0.19772145 0.09547253 0.17522909 0.15959607 -0.11104279 0.467778 0.08322017 -0.05837367
0.11338376 -0.16400589 -0.14785783 -0.28457296 -0.38087654 -0.18673602 -0.2169489 0.024162661
-0.1021753 0.022185957 0.16161263 -0.1915373 -0.07370424 -0.11693719 0.057450674 -0.16839859
0.24506216 -0.1159715 -0.077210575 0.06820763 0.192324 0.37173486 -0.20521423 0.3892825
-0.114613764 -0.0003504967 0.15710872 -0.35639137 0.3506747 -0.26680547 0.19408709 0.2071045
0.24540535 -0.17154853 -0.02984225 0.11747791 0.025412416 0.1359486 0.11281158 0.21718241
0.20490637 0.11949307 0.1878926 0.15346937 -0.11403376 0.3612252 0.121676475 0.22795823
-0.14544345 -0.26518422 0.030226827 0.3086588 0.09331768 -0.07677662 -0.3386786 0.19892296
0.17231078 0.3148256 -0.091681674 0.08263598 -0.027644075 0.39565828 -0.04440482 0.036648195
-0.010477853 -0.21639799 -0.16712655 0.08625462 0.30479857 -0.28660464 0.4553941 -0.16046387
-0.32428667 0.043018326 -0.018149387 -0.029972576 0.1413744 -0.15410714 -0.113141194 -0.08543347

RDP_TripleNN_1/Dense_Layer_5_1/BiasAdd/ReadVariableOp:0 f4 [18]
00000000: df31 d83e 205b 143f 4b6b de3e 67fe d93d
00000010: 163a c53e 3780 c23e a8e2 0e3f ebba d93e
00000020: 039c 623e 9915 933e a3f5 553e e980 8a3d
00000030: 1a40 903e 1d95 f43e 7f0b 0c3f d590 f33e
00000040: dd1d f43e 5efc 923e
0.4222555 0.57951546 0.43441233 0.106442265 0.3852088 0.37988445 0.558146 0.4252542
0.22129826 0.28727415 0.20894484 0.06762869 0.28173906 0.47770014 0.5470504 0.47571436
0.47679034 0.28708166

RDP_TripleNN_1/Dense_Layer_4_1/Cast/ReadVariableOp:0 f4 [64, 30]
00000000: 9169 c4bc d616 3e3e 52e7 22be 5ee1 30bd
00000010: 3fea 363e b27a b5bd a958 113d d0a2 08be
00000020: 7203 a4bd a10d 8c3d 96ba 81bc 8680 adbd
00000030: 27cd 6b3d 11f4 3a3c 7bee 2e3e 1259 0ebe
00000040: 927a 0bbe 7323 01bd 414f 22be 4f99 81bd
00000050: caf7 22be 6fe4 72bc 1de9 c2bd 4ddc eebd
00000060: f380 c93d 02a8 85be e309 97bd 7468 89bb
00000070: f401 573e 43cb c3bc 3ed6 493d d3a8 26be
00000080: fcdb c63b f612 81bb c696 3a3e 1eee 3e3e
00000090: 1d8a 84bc 86df 41bd 0840 ee3c 8cfe 443e
000000a0: 656b 183e d864 22be 358c 19ba 09d1 343e
000000b0: 27af a1bd 2536 22be bbf0 963c 31fe 22be
000000c0: 8079 f43d b49d 9fbd 4a83 fa3d 70a9 193e
000000d0: 6ecb 84bd 4c73 183e d416 373c a2b9 113e
000000e0: fb90 5d3d ad22 943d b5be c33d a072 f4bd
000000f0: eece 063e 11b8 d83d 1ef2 2e3e 8575 0b3e
00000100: 5639 93bd d147 483e 5659 373e 58ec 02bd
00000110: 9e2e 05bd 9b56 333d 0eb0 b9bd 0788 93bd
00000120: 2e1d 213d 9339 1cbe bdba 18bd d425 0ebe
00000130: 513e 21be f6f4 483e 688b e0bd 88c6 a83d
00000140: 65f6 303e dbdf c4bd 92ab be3d d74e 2abe
00000150: 008f 713e 1598 a4bd ebc6 50be 3dbb 493e
00000160: 7c96 2abe 4722 eb3d e4d4 1fbe ecdb 9c3d
00000170: 6125 0fbe d7ff de3d 5ba9 c13d 26ed e4bd
00000180: 4196 43be 06f9 b6bd b0a0 1dbe bb65 123d
00000190: 0c4e d3bd b6d1 f0bd 57cf e03d 62f5 f8bd
000001a0: 694d e33d 8f8e 1c3e f7e4 1e3d 784b 8ebc
000001b0: 375b 1cbe 8380 ea3d 09a1 ddbd 25a0 3ebe
000001c0: 9e4c 113e 18f1 923b 81de e03d 08d7 11be
000001d0: 0424 c1bd 2d98 34be ae81 4cbe 5f21 3e3e
000001e0: 2faf fabd fff9 af3d 4807 44be 0fc4 eebd
000001f0: 87e0 8abc dc6a 573e 2df7 093d 14f8 cf3d
00000200: 5565 7bbd 3f8e f43d dbe7 2bbe 1844 4ebe
00000210: c2b6 aabd 9223 113e 27fb 113c d66f 8e3d
00000220: 25a4 33bd 4129 57be c5d7 133d fbb9 2abe
00000230: d98d 01bd 80e6 bc3d 963f f6bd 3d0b 69be
00000240: 9129 803d 9457 303e c6fc c4bd 68ec 22be
00000250: 0533 ce3d c0f7 69be edd7 373e 0d07 16bb
00000260: 4874 0e3d 6fb9 173c 044d 84bd fd0e 5a3d
00000270: f75b 513c 462a 5e3c 5b24 563d c2e1 d2bd
00000280: 0ac8 4fbe ea21 2cbe 6220 11be bd4d 48be
00000290: a3ea 90bd 2707 46bd c639 3f3e c0cb 0ebe
000002a0: 1046 5e3d 32f2 65be f7e2 e9bd 7928 30be
000002b0: 0737 3bbe b252 da3d ed3e 7cbe 7967 403d
000002c0: 8313 47bd ec66 4fbe c690 02be af13 103e
000002d0: 7664 a33d 0781 1cbe e72d e4bd 2228 173e
000002e0: 0534 9f3d e487 1bbe a70d 74bd fe17 003e
000002f0: 1ade ba3d 2434 5ebe 54c8 07bd 29e0 7dbd
00000300: ca72 07bb fff1 55bd 6829 9bbc bc12 053e
00000310: 3299 36be 5405 03be 7005 07bd 04b3 573d
00000320: 3560 d43d 3d35 acbd a02e b13d e8cf 283e
00000330: 4c59 f23d 03a7 5fbe cfee efbb 3777 2e3e
00000340: 3ba1 5ebe 919a 9f3d 7200 b4bd db67 303e
00000350: 15ef 15be 719b 113e da20 91bc 7f83 a93a
00000360: e556 ffbc aeeb 393d 1054 253e d65e fb3d
00000370: 4a6a 35bd d187 da3d dd16 1dbe a0c2 3abe
00000380: c26c 1ebe 4230 39bd 8d33 62be 3fc3 1c3e
00000390: 0f1c 323e 964d b3bc 8ddb 3abe 5009 c3bd
000003a0: 2fc7 d23d 05b7 eabd b665 de3c 308f da3d
000003b0: c865 483e 2ce3 74bd 1a18 cb3d 4a13 21bd
000003c0: d890 f33d c1d2 353d 70ac 5c3d 447b 153d
000003d0: 043f 06bc fe49 403e fa55 91bd 9f32 cd3d
000003e0: 6194 a9bd 3a94 083e 132d a7bd 2d40 623c
000003f0: 402d 4d3d 2b35 bdbb f78a 14be 8c4b bb3d
-0.02397612 0.18563399 -0.15908554 -0.043183677 0.17862795 -0.08861293 0.035484944 -0.13343358
-0.0800847 0.06838537 -0.015836041 -0.084717795 0.057568695 0.011410729 0.1708316 -0.13901165
-0.13620976 -0.031527948 -0.15850545 -0.063280694 -0.15914837 -0.014824971 -0.09517119 -0.11663113
0.09839048 -0.26104742 -0.073749326 -0.00419336 0.20996839 -0.023900634 0.049276583 -0.16275339
0.0060687046 -0.003939028 0.18221578 0.18645522 -0.016179139 -0.04733231 0.029083267 0.19237727
0.14884718 -0.15858781 -0.00058573793 0.17657866 -0.07894736 -0.15840967 0.018425336 -0.15917279
0.11937237 -0.07793751 0.12232073 0.15006042 -0.06484114 0.14887732 0.011174876 0.1423097
0.054093342 0.072331764 0.09557859 -0.119359255 0.13164875 0.10581983 0.17084548 0.13619049
-0.0718867 0.19558646 0.17905173 -0.031963676 -0.03251516 0.043783765 -0.09066783 -0.072036795
0.03933447 -0.15256338 -0.037287463 -0.13881618 -0.15746428 0.19624695 -0.1096409 0.08240992
0.17281492 -0.096130095 0.09310068 -0.16631638 0.23589706 -0.0803682 -0.20388381 0.19700332
-0.16658968 0.11481147 -0.15608555 0.07659134 -0.13979103 0.10888641 0.0945613 -0.11178045
-0.19100286 -0.08934216 -0.15393329 0.03574155 -0.10317621 -0.11758749 0.10977047 -0.12156178
0.11098749 0.15288757 0.038792577 -0.01736997 -0.1526917 0.11450293 -0.10821731 -0.18615778
0.14189383 0.004484307 0.10979939 -0.14242184 -0.094306976 -0.17636175 -0.19971344 0.18567418
-0.12240445 0.08592605 -0.19143403 -0.11658489 -0.016952766 0.21036857 0.03368299 0.10154739
-0.061375935 0.11941194 -0.16787665 -0.20143163 -0.083356395 0.14173725 0.008909977 0.06954925
-0.043857712 -0.21011831 0.036094446 -0.16672508 -0.031629417 0.09223652 -0.12023847 -0.22758193
0.06257928 0.17220908 -0.09618525 -0.15910494 0.10068325 -0.22848415 0.17953463 -0.0022892386
0.034778863 0.009260519 -0.06460002 0.05323695 0.012778274 0.013559883 0.052280765 -0.10296966
-0.20291153 -0.16809812 -0.1417251 -0.19560905 -0.070760034 -0.048346665 0.18674383 -0.13944912
0.054266036 -0.22455671 -0.11420243 -0.17202939 -0.1828271 0.10660304 -0.2463338 0.04697368
-0.048602592 -0.20254105 -0.12750539 0.14070009 0.07978146 -0.15283595 -0.11141568 0.14761403
0.07773594 -0.15188557 -0.059583332 0.12509152 0.09124394 -0.21699578 -0.033150032 -0.061981354
-0.0020667785 -0.05223274 -0.018940642 0.12995428 -0.17831877 -0.12795001 -0.03296417 0.052660957
0.103699125 -0.08408592 0.08651471 0.1648556 0.11833438 -0.21841054 -0.0073221694 0.17037664
-0.21741192 0.07793153 -0.087891474 0.17227118 -0.14641984 0.14219452 -0.01771586 0.0012932866
-0.031169364 0.045390777 0.16145349 0.12273948 -0.04429082 0.10670436 -0.15340753 -0.18238306
-0.15471175 -0.045212038 -0.22089978 0.15308855 0.17393516 -0.021887582 -0.18247814 -0.095232606
0.102918975 -0.114606895 0.027148109 0.10671842 0.19570076 -0.05978696 0.099167064 -0.039325036
0.11892861 0.044390444 0.053875387 0.03649451 -0.008193735 0.18778226 -0.07096477 0.10019421
-0.08280254 0.13337794 -0.08162894 0.013809246 0.050091982 -0.0057741604 -0.14506136 0.09145269

RDP_TripleNN_1/Dense_Layer_4_1/BiasAdd/ReadVariableOp:0 f4 [30]
00000000: e0b9 bf3d bf56 6e3e af2b 2a3d 2cc8 ed3d
00000010: 14e5 4abe aa9b 10be 65db 2f3d c747 bbbd
00000020: 59e4 a83d 9036 d53d a070 f2bc 2565 10be
00000030: 9c75 30be 6664 ecbc fe4a 9f3d 90b3 1a3e
00000040: 32d9 4b3e 8f0c 893c 4009 a5bd 35e7 183b
00000050: 2ebe ba3d d58c 53bd d5f2 9aba d2d9 983c
00000060: 534d c03c 26ce a33d 9570 aabd e1d7 333e
00000070: c394 b63d ccaa 373d
0.09361625 0.23275279 0.041545566 0.116104454 -0.19813949 -0.14121881 0.04293384 -0.0914455
0.08246679 0.104107976 -0.02959472 -0.14101084 -0.17232364 -0.028856467 0.077779755 0.1510756
0.19907072 0.016729621 -0.08058405 0.002333117 0.09118305 -0.05164798 -0.0011821637 0.018658552
0.023474371 0.07998304 -0.083222546 0.1756282 0.08915093 0.04484062

RDP_TripleNN_1/Dense_Layer_2_1/Cast/ReadVariableOp:0 f4 [96, 64]
00000000: 36d0 b1bd 9453 963d 9a79 a03c 964a ecbd
00000010: 4f2f 06bd ddfa f8bc 4a13 323d 857c 32be
00000020: ade8 803d 307f 0f3d 2ffe e93d 3511 773d
00000030: 7d45 acbc d9a9 563d 3bd5 c2bc 04bf 35be
00000040: b5cb 02bd 30ae 613d a724 133d 4484 b63d
00000050: ec19 f93a 7812 263d 6931 973e 5c57 dbbc
00000060: 63c6 5dbd 06ab b73c 7a6b 17bb b41e 33be
00000070: 7dfd 23be 3262 14bd bbae 52bb 8d3c 01be
00000080: 38d9 f93a dce4 6c3c 6709 c83d e25d af3d
00000090: 7da1 0cbe bd2e 63bd 12b5 93bd 773f 8d3c
000000a0: b837 97bc 9c83 17bd 823d bb3c e8ab 0cbe
000000b0: 9480 4fbd a2e1 02be 0aea a0bc bd15 07be
000000c0: 4e2d b53c 7e38 2dbd cd13 d9bc 37d8 ecbb
000000d0: 9d9b 563e 3cf6 00be 2b69 963d fd1f 043e
000000e0: 1582 f5bd c6af 04be 96a8 843d 6966 4e3d
000000f0: fb4f 2e3e 5af1 30bd 2357 533d 23df 94bc
00000100: 3647 3d3e c8fa 2bbe 741d d4bd 6201 b73d
00000110: d659 ab3d 5c67 403e 77e9 fabd 7829 a5bd
00000120: 1597 d03c 6019 c4bd 5feb 31be c3ac b9bb
00000130: d950 60bc f7d2 673e c1b5 dcbd 70ad 1bbe
00000140: d353 5e3c 7aea 113e 6cfe 93bd f5d9 45be
00000150: e0d1 f8bd fa93 423e b282 2abe 469e 013e
00000160: 9ba1 efbb e780 22bd ba3c 223e 862e b5bd
00000170: bd86 213d bff1 f03d e95a 0c3d 215e acbd
00000180: 0c33 083e 2099 5c3d 63c5 3e3b d1ba 34be
00000190: e71c 62bd e717 48bb 537b 04be d7c8 b7bd
000001a0: b466 73be 6b8c f33c d3e0 09be 8655 9ebc
000001b0: 9f58 1dbe 2e04 b8bd a95c bebd 7c32 c1bc
000001c0: 8fdb d739 3aa6 b7bd b539 10be 2e98 dc3d
000001d0: 51ad 263e 38ef d5bd 8f95 aa3d ad4a 6c3c
000001e0: 1757 43bd 0389 413e f046 eb3d b8d3 1c3e
000001f0: 4cb3 22be dab6 95bd 62d2 debc 8001 bdbd
00000200: 673a 6cbd c708 17be 76ea b3bd 5ff9 01bd
00000210: da03 3abd 0a33 a33d 176d 113e 32e5 eb3d
00000220: ac3a 203e 5e03 563e ace4 223e 14e4 a6bc
00000230: bdaa a5bc 7c8c 56bd 8e8a 95bc 91fc e3bc
00000240: 6033 56bc fbd7 9fbd 29a9 d0bd 056f d1bd
00000250: 510b 0a3e 611f a43d ee04 843d 8053 10bd
00000260: a867 af3d b6be 5e3c 022a 11be ca5d c3bd
00000270: c47e 94bd 8441 1b3d 907c 34be 9721 25bd
00000280: b356 f83d 7474 343e ef87 013e a617 97bd
00000290: d333 51be 505c b3bb b197 c4bd d1a8 06be
000002a0: eec4 9cbd 6f5f 203d 7b74 e8bd 8efd 9e3d
000002b0: ce23 023e 1df2 103e 2d54 d6bb 8209 e6bc
000002c0: 5fc4 503e 0764 413e 9ff2 14be 555e 1b3e
000002d0: 9402 273e 847f d7bc 2552 10be 7250 4d3e
000002e0: 690d 05be 9aa4 2a3b 4e3e 493d ae6e 163e
000002f0: 2cd0 393c 249d 17be 9245 99bd b815 f7bc
00000300: b431 f63d 445c 75bd 9ada 883d 4d00 39bd
00000310: 88cb 37be 86ec 1d3e 139c 3dbe 4d24 3ebe
00000320: a248 853d e8d1 bc3d 297d 90bb 2ca5 0cbe
00000330: db00 af3d f2f8 323e 76a3 633d 3c38 c7bd
00000340: ebd1 413e 6c84 093c dff1 743d 9356 04be
00000350: f04e 3ebd d707 433b c6aa f9bd 08f9 75bd
00000360: a018 8ebc 3155 76bc 1c40 e53d 7d04 0e3c
00000370: 02fb 993d 696c 84bd 3a0a 18be de9c 1cbe
00000380: 09df 2cbd 4805 2fbe c146 3ebd 3239 9f3c
00000390: f5b3 2b3e 62bf 9cbc ce5e 28be be25 7b3d
000003a0: 8259 e83d 9f32 de3d 7593 53bd 9c4c 00be
000003b0: 405d 8a3d 0e7b 67bd 1bfb 893d cc96 8e3d
000003c0: cd6a 42bd 161f 9c3d 8666 16be 0c15 eb3d
000003d0: d52e 243d 9544 0f3e 01ce 5c3c 11d8 babc
000003e0: ef57 1bbd 0a71 343d ca34 11bd f22f b13d
000003f0: 4ab4 303d 53c9 eebd 558e 353e d7c2 09be
-0.08682291 0.0734016 0.019589234 -0.11537664 -0.03275996 -0.030393058 0.043475427 -0.17430313
0.062943794 0.035033405 0.11425435 0.060319144 -0.021029228 0.052408073 -0.023783317 -0.17748648
-0.03193255 0.05509776 0.035923626 0.089119464 0.0019004918 0.040544957 0.29529884 -0.026775055
-0.054144274 0.022420418 -0.0023104833 -0.17492181 -0.16014667 -0.03622646 -0.0032147605 -0.12620755
0.0019061929 0.014458861 0.09767418 0.085628286 -0.13733478 -0.055464495 -0.07212271 0.017242176
-0.018459186 -0.036990747 0.022856478 -0.13737452 -0.05065973 -0.12781385 -0.019642849 -0.13191886
0.02211633 -0.042290203 -0.0264987 -0.0072279233 0.209578 -0.12593931 0.07344278 0.12902828
-0.11987702 -0.12957677 0.06477468 0.050390635 0.17022698 -0.04319892 0.051596772 -0.018172806
0.18484196 -0.16794884 -0.1035718 0.089358106 0.08366744 0.18789428 -0.12251561 -0.0806455
0.025462667 -0.095751524 -0.17374943 -0.0056663468 -0.013691151 0.2263907 -0.10776854 -0.1520288
0.01356979 0.14249602 -0.072262615 -0.19321425 -0.121494055 0.19001761 -0.16651419 0.12658033
-0.007312966 -0.039673712 0.15843478 -0.08846764 0.039435137 0.117648594 0.034266386 -0.08416391
0.13300723 0.05385697 0.002910935 -0.1764939 -0.055203345 -0.0030531825 -0.1293767 -0.08973854
-0.23769647 0.029730042 -0.1346467 -0.01932789 -0.15365838 -0.08985172 -0.09295017 -0.023583643
0.0004117158 -0.08967252 -0.14084513 0.107712135 0.16277052 -0.10446018 0.08329307 0.014422101
-0.047690477 0.18899922 0.1148814 0.1531514 -0.15888709 -0.07310267 -0.027199928 -0.09228802
-0.057672884 -0.14749442 -0.08784954 -0.03173196 -0.04541383 0.07968719 0.1420177 0.11518325
0.15647382 0.20899722 0.15907544 -0.020372428 -0.020223016 -0.05238007 -0.018254545 -0.027830394
-0.013073772 -0.07804867 -0.10188515 -0.102262534 0.1348088 0.080137976 0.06446253 -0.03523588
0.08564693 0.013595274 -0.14176181 -0.09539373 -0.07250741 0.037904277 -0.17625642 -0.040315237
0.121259116 0.17622548 0.12649511 -0.073775575 -0.20429926 -0.005473651 -0.09599245 -0.13150336
-0.07654749 0.039153513 -0.11350342 0.077632055 0.12708971 0.14154859 -0.0065407963 -0.028080706
0.2038741 0.18885814 -0.14545678 0.15172704 0.16309577 -0.026305921 -0.14093836 0.20050219
-0.12993397 0.0026038052 0.049131684 0.14690658 0.011341136 -0.14806038 -0.074839726 -0.030161723
0.12021199 -0.059902444 0.0668232 -0.045166302 -0.17948735 0.15422258 -0.18516569 -0.18568535
0.06507994 0.09219724 -0.0044094515 -0.13734883 0.08545085 0.17477778 0.05557581 -0.09727523
0.18927734 0.008393388 0.05980098 -0.1292365 -0.046462 0.0029759312 -0.121907756 -0.060051948
-0.017345726 -0.01503496 0.111938685 0.008668062 0.07518579 -0.0646599 -0.14847651 -0.15294215
-0.04220489 -0.17091858 -0.046454195 0.019436453 0.16767867 -0.019134227 -0.16442415 0.06131529
0.11345197 0.10849499 -0.051654298 -0.12529224 0.06756067 -0.05651384 0.06737348 0.06962356
-0.047465134 0.07623117 -0.14687547 0.11478624 0.040083725 0.13991006 0.0134768495 -0.022808107
-0.037925657 0.044053115 -0.035450734 0.08651723 0.043140687 -0.11659493 0.17730077 -0.13453232

RDP_TripleNN_1/Dense_Layer_2_1/BiasAdd/ReadVariableOp:0 f4 [64]
00000000: 218f 87bc 8c2d 51bc f625 19be 22f9 1abe
00000010: 3bce 21be 1091 bfbd e29f 5ebc 6046 18bc
00000020: c775 4cbc b526 50bd fceb d4bd 7974 39be
00000030: fcc7 2abd c603 6ebd 3712 73bd 0def 61bc
00000040: 0e96 e2bd ac35 1abe 733c 91bd 95cf 13bd
00000050: ce94 253d 431c bebb 7bfd 53bd e5c8 d9bd
00000060: a91e 8e3c 568a 6a3c d88e b3bc 1742 9b3c
00000070: 48f5 20bd 1e47 09be 5e01 c03c 3cef 49bd
00000080: 6a5e febd 0a37 15bd 8546 a1bd 98e7 cbbd
00000090: 8cc8 06be c2b5 ddbd ab93 123c 9e2d 0fbe
000000a0: 01cc 3ebd 75d1 91bd 0c66 20be 337d ffbd
000000b0: ed25 05bd 2cd3 c9bd 239b fbbc e6ba fcbc
000000c0: 9c40 8f3c 89f9 9abc 5e5d 17bc 3092 b5bd
000000d0: e3e9 debd 0493 ecbd eb0b e8bd 20ba 393c
000000e0: 64d0 dabd f47c 74bd 93bf 5dbd 0738 1ebd
000000f0: 1b3e 1fbd 16ba 66bd ef64 5cbd aabc d1bc
-0.016547741 -0.012767207 -0.14955887 -0.15134099 -0.15801327 -0.0935384 -0.013587924 -0.009294122
-0.012479252 -0.050818164 -0.10396573 -0.18110837 -0.041694626 -0.058109067 -0.059343543 -0.013789904
-0.11063777 -0.15059537 -0.07091608 -0.036086638 0.040425114 -0.005801709 -0.05175541 -0.10634021
0.017348604 0.014315208 -0.0219187 0.018952413 -0.03929642 -0.13406035 0.023438152 -0.049300417
-0.12420352 -0.036429442 -0.07874779 -0.099562824 -0.1316244 -0.10825683 0.00894634 -0.13982245
-0.046581272 -0.07120029 -0.15663928 -0.12475052 -0.032506872 -0.09854731 -0.030713623 -0.030850839
0.017486863 -0.018917816 -0.009238569 -0.08865774 -0.10884454 -0.115514785 -0.11330398 0.01133588
-0.106842786 -0.059689477 -0.054137778 -0.03862765 -0.038877588 -0.05632981 -0.053807195 -0.025602657

RDP_TripleNN_1/Dense_Layer_1_1/Cast/ReadVariableOp:0 f4 [96, 96]
00000000: 3d9b 663d 1913 803d 62ea 40be aaf3 a53d
00000010: 19df c63c df8e 6a3c 7d78 7ebc 6bb0 4ebe
00000020: 2a6d a43d a87e 343d 68ef ec3d 476c 02be
00000030: 5eb4 93bd ba8f 57bc 9670 df3d c09a 56bd
00000040: ef14 6dbd 84e5 c43d e3f7 f7bd 8b57 293a
00000050: 21fa f53d bf27 e3bd f01c 43be a3aa f23d
00000060: 943d d83d 9400 bd3d 2cba 3c3c b8e2 f43c
00000070: 4a2f 8a3e 45a4 82bd 7b8c 47be 86ed 743d
00000080: a81f 113e 5d17 60bd d298 cabb aa68 0cbe
00000090: de21 483d 8a84 15be 2099 683d c193 92bc
000000a0: c419 8e3d 6a81 31bd 6b5c 08bd 6840 b13d
000000b0: 28c8 efbc a268 5b3d 2890 a4bd a486 bf3d
000000c0: f9e5 0e3e 5c85 8c3c 216b dd3d 6cf0 ed3d
000000d0: b4fe 9dbc 3571 fa3c a866 8abd ae35 bc3b
000000e0: d806 bbbd a623 733d e708 0e3c 16ea ee3c
000000f0: 8bd7 b6bc 6262 0ebe 2b42 b0bc 23c5 9f3c
00000100: e432 76bd 61c5 983d 754b 1bbe ecc0 ec3d
00000110: 43dc 1fbe 1199 76bd 5d04 89bd 1c0c 903d
00000120: de95 1a3e d048 fe3d 1860 39be 8620 213c
00000130: 11f7 4e3d d676 19be f3e0 b63c 82c3 2cbc
00000140: c331 f23d 6899 d63d 5a61 043b 3109 30be
00000150: 6346 97bd a038 b33c 543b 8bbd 1dd6 a43d
00000160: 9f5c 19be a3e0 7c3c 3eef 3c3d 1e2b ba3d
00000170: 316b 43bc 48d9 54bd c513 34bc 8267 15be
00000180: b984 edbd 05b1 26be 0826 ecbd 2ec1 683e
00000190: dfd8 f1bc f774 0fbd 4910 f93d f0cd 923d
000001a0: 113a b93d fa14 8e3d cd25 83be 431d 3c3d
000001b0: df48 1cbb a288 d0bd 3fa6 a9bd b3dd 33bd
000001c0: 774b f63c 894b c8bb 2c3e bb3d 142a c03b
000001d0: e1be 6c3c edfb 003e cadb 5f3e aba7 253d
000001e0: f9bf ffbd 0dd7 023e bd43 2bbd 041b be3d
000001f0: ed7a 83bd eb3b bd3c 99e7 db3a f4d4 a1bd
00000200: aac2 4cbe aab2 09be de71 813d ad79 043e
00000210: bdef 56be 8154 2cbe f2c2 8bbb 9051 6d3c
00000220: b0f5 ff3d c4b6 f0bd 612d 3e3d 1723 703d
00000230: b72f 833c 2f75 953c a026 d9bc 731f 1dbd
00000240: 37d6 4abd f7c2 7cbb 23b7 563d bc6a a9bd
00000250: 4f07 1a3e 9892 58bd 800f f93d f7d7 c93d
00000260: cd02 96bd 957a 8a3d 58b7 5fbd 43ad 0bbe
00000270: d74e 52bc d6a4 e93d 3b71 20bd 3ea3 5f3d
00000280: 313e 103e bbcf a03d 4219 01bd 329d 0b3d
00000290: f187 363e de52 4a3d 35a3 883d b9ba bdbc
000002a0: 2c51 7ebe 95ce cdbd 61fe ae3d 64ba 62bd
000002b0: 18fd 063d da9d 2b3d 2206 fabd 7a2b a33d
000002c0: b667 edbd 6b0f 15be a37c 743c 8ab1 333b
000002d0: 1411 913c e57e 54bc 96bc b6bd 8556 863d
000002e0: 3940 8e3d 5148 f33b 1bdb f6bc 684a 1ebd
000002f0: 9703 00be 1156 cd3d 99ed 9c3c 46c5 36be
00000300: 3f56 20bd baf5 6b3d e07c 02bd d5e1 80be
00000310: e89a 56bd 5b13 2dbe 87ed 8fbe 8f8e 17be
00000320: fac9 eb3d 1ee0 85bc 26f6 3c3c 15b0 8f3c
00000330: 1315 553c 970e 0e3e 1372 35bd c612 103e
00000340: 3526 ed3d 41d5 8ebc 585e acbc 7b06 d2bd
00000350: 143c 623c 6f5e 27bc ec31 abbd 72b8 033d
00000360: 3509 4a3e 0d54 d33c dcca 8cbd b4a9 ecbd
00000370: 745c 183d b14c 8a3d 2d72 2abc 07fc 3e3e
00000380: 8344 acbd 66d8 ea3d d8f3 b73d cff9 37be
00000390: bfcf 943d 4d35 013e afb1 493c 4ab5 c8bc
000003a0: a848 7fbe 4f94 88bd 72d9 323d 7560 09bd
000003b0: 93f8 d03d 2825 31be 1eaf 9ebc 7c19 e93d
000003c0: 39f7 85bd ab46 54bd 38d6 c7bc 9c15 31be
000003d0: a6fd 5bbe b095 f43c 2849 ef3b 1fec 2bbd
000003e0: d150 973d ff93 cfbd 3937 fb3d 3264 6a3e
000003f0: 0b16 8e3d 7047 2bbd 975b 8b3d 6fd4 2dbe
0.05630039 0.062536426 -0.1883941 0.08103116 0.024276303 0.01431629 -0.015531656 -0.20184486
0.08028634 0.0440661 0.115691006 -0.12736617 -0.07212137 -0.013156826 0.10910146 -0.052393675
-0.057881292 0.09614089 -0.121078275 0.00064598833 0.12010599 -0.11091565 -0.19054008 0.118489526
0.1055862 0.09228626 0.011518996 0.029893264 0.26989204 -0.06378988 -0.19487183 0.059796833
0.14172232 -0.05470978 -0.0061827684 -0.13711801 0.048860423 -0.14601341 0.056786656 -0.01789272
0.06938508 -0.04333631 -0.03329126 0.08654863 -0.029270247 0.053566583 -0.08035308 0.093518525
0.13954915 0.017153434 0.10811449 0.116181225 -0.019286491 0.03057156 -0.067578614 0.005743704
-0.09132165 0.05936017 0.008669115 0.029164355 -0.022319576 -0.13904718 -0.021515926 0.019503182
-0.060107127 0.07459522 -0.15165503 0.115602344 -0.15611367 -0.06020457 -0.06690285 0.0703356
0.15096232 0.12416232 -0.18103063 0.009834414 0.05052859 -0.14986739 0.022324061 -0.01054466
0.118258975 0.10478479 0.0020199628 -0.17191006 -0.07386472 0.021877587 -0.06798425 0.08048651
-0.14976738 0.015434417 0.046126597 0.09090255 -0.011927412 -0.051965028 -0.010991042 -0.14590266
-0.115975805 -0.16278465 -0.115306914 0.22729942 -0.029522358 -0.035023656 0.12161309 0.07168186
0.090442784 0.06937595 -0.25614777 0.045926344 -0.0023847145 -0.10182311 -0.08283662 -0.0439126
0.030065281 -0.00611252 0.09142718 0.005864391 0.014449806 0.12596102 0.21861187 0.040443104
-0.12487788 0.12777348 -0.041812647 0.092824966 -0.064199306 0.02309986 0.0016777396 -0.07901946
-0.19996133 -0.13447061 0.063205466 0.1293704 -0.2098989 -0.1682911 -0.0042651827 0.014484778
0.12498033 -0.1175361 0.046429995 0.058627214 0.016013963 0.018244354 -0.026507676 -0.03836007
-0.049520697 -0.0038568357 0.052420747 -0.08272311 0.1504185 -0.052874178 0.121611595 0.09855645
-0.07324753 0.06761662 -0.05461821 -0.13640313 -0.01283618 0.11408393 -0.039170485 0.05459904
0.14086224 0.078521214 -0.03151823 0.03408546 0.17825295 0.049395435 0.06671754 -0.023160325
-0.24835652 -0.10049168 0.08544613 -0.055353537 0.032956213 0.041898586 -0.12208201 0.07967277
-0.11592047 -0.14556663 0.014922294 0.0027419054 0.017708339 -0.012969707 -0.08922689 0.06559471
0.06945843 0.0074243923 -0.030133775 -0.038645178 -0.1250137 0.100261815 0.019156264 -0.17848691
-0.03914475 0.05760739 -0.03185737 -0.25172296 -0.052393824 -0.16901915 -0.28110906 -0.14800476
0.11513133 -0.016342219 0.011533296 0.017540017 0.013005513 0.13872753 -0.044298243 0.14069661
0.11579553 -0.017435672 -0.02104108 -0.10255142 0.013808269 -0.010215386 -0.08359131 0.032158323
0.19730075 0.025796914 -0.0687463 -0.11555806 0.037197545 0.06752909 -0.010403198 0.18650828
-0.08411505 0.11467056 0.089820564 -0.17966388 0.07266187 0.12617989 0.0123104295 -0.024500508
-0.2493006 -0.066689126 0.043664403 -0.033539254 0.10203662 -0.1729933 -0.019370612 0.11381814
-0.065412946 -0.051825207 -0.02439414 -0.172934 -0.21483478 0.029856533 0.007302422 -0.04197323
0.073884614 -0.1013565 0.12266392 0.22889784 0.06937798 -0.041816175 0.06804579 -0.16975568

RDP_TripleNN_1/Dense_Layer_1_1/BiasAdd/ReadVariableOp:0 f4 [96]
00000000: dcb7 96bd a876 80bd 82d2 6abe 7628 b0bd
00000010: 9f5b e4bc 4ece 9cbe 0b04 dcbe ae22 9ebd
00000020: 53dc ddbd 9a42 3bbe 4851 5ebe f46a 0abe
00000030: a721 1fbe 971f 9dbe ed0a c2bd a475 ddbd
00000040: b65e dd3d 7032 0dbe 54c3 2cbe 9f77 38bd
00000050: 895d f2bd ae73 54bd 4e65 afbd 1a4c cbbd
00000060: fc47 8cbd d3db d9bc 5edc 54be 24e1 45bd
00000070: a5ab a5bc 2b85 0cbe 874d 9abe f7a3 8dbd
00000080: 00e5 8dbe 9645 02be 31c6 79bd 018b 49be
00000090: 0857 4bbe b880 30be 19ff c0bd f53b 863c
000000a0: 606c 44be 7a07 33be 520f 1ebe c15e 2fbe
000000b0: fb5f 9bbe 7745 2fbe db7a 95bd 74f6 59bd
000000c0: f707 48be e334 9fbe 32c0 ddbd 74d1 64be
000000d0: d297 a7bc f027 83be c642 e4bd cd38 70be
000000e0: 1c5d febd 5e2c 48be 941f a0bc e7e1 333d
000000f0: 62c5 c2bc 2526 6abe 615d 5dbe f18c 67bd
00000100: 97cb febd 4f32 80be 57a2 82be aa05 82be
00000110: 2960 edbc 6f67 9a3c 0d48 18be fcb5 12be
00000120: 1eca 63be 9c88 3fbd e883 92be c73e fbbd
00000130: 1522 09be f622 fbbd b466 9e3b b0ac afbc
00000140: fc98 47be e901 2cbe 08bd a8bd dd59 89bb
00000150: 878e b8be 6992 83bd a55d 39be dc23 d4bd
00000160: c49a d23c 43a5 25be f02f 65be ba00 66be
00000170: d1f9 66bd 7a15 3ebe 8efb bcbc d927 41bd
-0.07359287 -0.06272632 -0.22931865 -0.08601467 -0.02787572 -0.30626148 -0.42971835 -0.077214584
-0.10833039 -0.18287125 -0.21710694 -0.13517362 -0.15540181 -0.30688164 -0.0947474 -0.10813454
0.1080908 -0.13788772 -0.16871387 -0.045035955 -0.11834247 -0.051868133 -0.08564244 -0.099266246
-0.068496674 -0.026594078 -0.20787188 -0.048310414 -0.020223448 -0.13722675 -0.30137274 -0.069160394
-0.27713776 -0.12721857 -0.060980026 -0.19681932 -0.19857419 -0.17236602 -0.09423656 0.016386012
-0.19181967 -0.17483321 -0.15435532 -0.1712599 -0.30346665 -0.17116342 -0.072988234 -0.05321355
-0.19534288 -0.31095037 -0.10827674 -0.22345525 -0.020458136 -0.25616407 -0.111455485 -0.23459168
-0.12420103 -0.19548175 -0.019546308 0.04391661 -0.02377576 -0.22866113 -0.21617652 -0.056530897
-0.124411754 -0.25038382 -0.2551448 -0.25394946 -0.028976517 0.01884815 -0.14871235 -0.14327234
-0.2224507 -0.04676114 -0.2861626 -0.12267833 -0.13391908 -0.12262528 0.0048340205 -0.021444649
-0.19491953 -0.16797604 -0.0823918 -0.0041916207 -0.3604624 -0.0642441 -0.18102129 -0.10358402
0.025708564 -0.16176324 -0.22381568 -0.22461215 -0.056390587 -0.1856288 -0.02306917 -0.047157142

RDP_TripleNN_1/Batch_Normalisation_Layer_5_1/batchnorm/sub:0 f4 [18]
00000000: 93e6 0fbf 6fa4 3abf a5a7 03bf 88ed d9bd
00000010: 762f 8bbe 0371 d9be 8386 00bf cb57 1bbf
00000020: 765e 7ebe f85b c9be e6bc 95be 7037 c1bd
00000030: 7c4f fbbd 4ff8 46bf 3c82 5fbf b25b 06bf
00000040: afd8 29bf 03d6 18bf
-0.56211203 -0.72907156 -0.5142768 -0.106410086 -0.27184647 -0.42469034 -0.5020525 -0.60680836
-0.24840721 -0.3932798 -0.2924568 -0.09434402 -0.1227102 -0.7772264 -0.87308097 -0.52483666
-0.6634626 -0.59701556

RDP_TripleNN_1/Batch_Normalisation_Layer_5_1/batchnorm/mul:0 f4 [18]
00000000: 39ea 1e3f 50c8 1c3f 923c 3e3f 3bfd e33e
00000010: 5a16 1e3f fb99 fb3e a74e fa3e 751a 523f
00000020: f111 f63e 62d8 c43e 2ff1 d33e 2f6f d33e
00000030: 5203 f43e 052e 323f 6ae7 383f ea03 fc3e
00000040: 0e96 293f 4de9 0d3f
0.62076145 0.6124315 0.7431117 0.44529137 0.61752856 0.49140915 0.48888132 0.8207162
0.48060563 0.38446337 0.41394946 0.41295764 0.47658783 0.6960147 0.7222811 0.49221736
0.6624459 0.55434114

RDP_TripleNN_1/Batch_Normalisation_Layer_4_1/batchnorm/sub:0 f4 [30]
00000000: 9cae 2bbf 0506 0ebf 5744 14bf 8c8e e7be
00000010: 4116 8abe f304 a5be ae8b e9be 68a8 f1be
00000020: c716 dabe 6714 c4be 2896 cdbe 5edb 16be
00000030: 2077 14be f642 aebe c9d2 1abf 63ca 5ebf
00000040: ae77 32bf 9b61 d4be cc48 96be 3ab2 0ebf
00000050: da37 9ebe 0eb5 a7be 9abf 23be 0c5b 18bf
00000060: 5f0e edbe 71f7 debe 4ed4 91be e96a 1bbf
00000070: d016 edbe 1c0e 48be
-0.6706331 -0.55477935 -0.5791678 -0.45225942 -0.26970103 -0.32230338 -0.4561438 -0.47198796
-0.42595503 -0.38296816 -0.40153623 -0.1473212 -0.14498568 -0.34035462 -0.6047788 -0.8702757
-0.69713867 -0.41480717 -0.29352415 -0.557407 -0.30901986 -0.3275532 -0.15991059 -0.59513927
-0.46300027 -0.43548158 -0.28482288 -0.60710007 -0.46306467 -0.19536632

RDP_TripleNN_1/Batch_Normalisation_Layer_4_1/batchnorm/mul:0 f4 [30]
00000000: 4da2 143f 653a c83e 1062 ff3e bb6c dd3e
00000010: ce6e 263f f08f 043f 5fa3 083f 433d 2f3f
00000020: 5f52 ec3e 19d9 f13e ffbe 0c3f 345a 003f
00000030: aa43 163f c1cc f03e 9fe2 e93e a63e 193f
00000040: a297 d03e ebb5 ee3e 5e61 e33e e6c3 093f
00000050: 9883 023f 97f4 ef3e 0021 113f 5042 ea3e
00000060: bce5 d53e f0bc d23e 9291 213f eb3b fe3e
00000070: afc4 e63e 0ad8 033f
0.5806015 0.39107051 0.49879503 0.43247017 0.65012825 0.5178213 0.53374285 0.6845285
0.46156594 0.47235945 0.54978937 0.5013764 0.58697 0.47031215 0.4568071 0.5986122
0.40740687 0.46623167 0.44410223 0.5381454 0.50982046 0.46866295 0.5669098 0.45753717
0.41776836 0.41159773 0.6311275 0.4965509 0.45071933 0.51501524

RDP_TripleNN_1/Batch_Normalisation_Layer_2_1/batchnorm/sub:0 f4 [64]
00000000: 805f d5be b818 1dbf 268f 9abe 19d1 b2be
00000010: bed2 9fbe d487 85be 62b8 05bf 6edc f3be
00000020: c594 23bf 1452 c0be d1fe acbe 5c40 68be
00000030: d4fe b5be 4fe1 b2be 998a aabe 401b c2be
00000040: 301d d0be 4a78 a1be b89a c2be 7058 a4be
00000050: 6f31 02bf 4e1b 04bf 5224 95be 58df 87be
00000060: 4a84 ecbe 8d58 c9be de0e b4be 04d3 80be
00000070: 5630 77be 16db dbbe a210 96be a6ef cfbe
00000080: 4e95 bdbe 9777 a1be 0760 b2be 91d4 ccbe
00000090: 5dfd a9be 8c2e d9be 317f f9be 5155 c5be
000000a0: 8920 b8be 5c0c 7abe 9ca2 86be c8f4 d0be
000000b0: 8ebd ecbe 4e47 efbe 5771 dbbe a02e 4bbe
000000c0: 1c7a e5be e8c6 c5be b49f c8be f85f bfbe
000000d0: e6a2 d8be 2a12 98be be51 bcbe 7da4 84be
000000e0: 1665 cabe 0bfb b9be 6ee1 b1be fbef ecbe
000000f0: 2073 17bf 4d45 d6be a196 8dbe 7563 c3be
-0.41674423 -0.6136584 -0.3018734 -0.34925154 -0.3121547 -0.2608019 -0.5223447 -0.47629112
-0.6389888 -0.3756262 -0.3378816 -0.22680801 -0.3554598 -0.34937522 -0.33308867 -0.37911415
-0.40647268 -0.31537086 -0.38008666 -0.32098722 -0.5085668 -0.51604164 -0.29129273 -0.26537585
-0.4619468 -0.3932537 -0.35167593 -0.25160992 -0.24139532 -0.42940587 -0.29309565 -0.40612525
-0.37027973 -0.31536552 -0.34838888 -0.40005925 -0.33201113 -0.42418325 -0.48729852 -0.38541654
-0.35962322 -0.24418777 -0.26295936 -0.40811753 -0.4623837 -0.4673409 -0.4285991 -0.19842005
-0.44819725 -0.38628316 -0.39184344 -0.37377906 -0.42311782 -0.29701358 -0.36781114 -0.25906745
-0.39530247 -0.36324343 -0.34742302 -0.4627684 -0.5916004 -0.41849747 -0.27653983 -0.38161817

RDP_TripleNN_1/Batch_Normalisation_Layer_2_1/batchnorm/mul:0 f4 [64]
00000000: d7ac 4f3f ce1b 3f3f 192d 283f 5421 5d3f
00000010: 754b 223f bd1a 483f 3a54 633f ada3 213f
00000020: 3865 563f 9c28 433f f8b1 513f c5f6 203f
00000030: 4116 2c3f 338d 4d3f cde7 5f3f 8f88 573f
00000040: 8384 263f 364b 483f d88a 333f 941b 213f
00000050: 93a1 513f 4230 303f 9657 563f 0181 313f
00000060: fba3 413f 990c 303f d649 4a3f 2d63 1d3f
00000070: e145 513f d9dd 423f b366 1b3f 685f 663f
00000080: 3ca9 453f 42cb 313f 586d 5a3f 4d15 613f
00000090: 665c 253f 75e6 333f 2952 553f f52f 453f
000000a0: 0bee 573f 76e9 6e3f 3aa7 2d3f 1dde 363f
000000b0: 0092 8d3f f845 223f fffe 4f3f 09d4 343f
000000c0: c7c3 2c3f 6ca7 353f 05a2 473f b0cd 413f
000000d0: 30e4 643f e8e9 493f 7fd7 293f 50bc 103f
000000e0: f383 463f 4e9a 393f 0e0a 293f 7558 343f
000000f0: 700c 273f 9a76 843f 7c3b 523f c91f 5c3f
0.8112311 0.746518 0.65693814 0.8637898 0.6339639 0.781658 0.88800395 0.63140374
0.837482 0.7623384 0.81912184 0.6287654 0.67221457 0.8029358 0.87463075 0.84192747
0.65045947 0.7823976 0.70133734 0.62932706 0.8188717 0.68823636 0.83727396 0.6933747
0.7564084 0.6876922 0.79018915 0.61479455 0.8174725 0.7611976 0.6070358 0.8998933
0.77211356 0.6945077 0.85323095 0.8792313 0.64594114 0.70273525 0.8332849 0.770263
0.843476 0.93324983 0.6783329 0.7143267 1.1060181 0.63388014 0.8124847 0.7063604
0.6748623 0.7095859 0.779816 0.7570448 0.89410686 0.7887254 0.66344446 0.5653734
0.7754509 0.72501075 0.6603097 0.70447475 0.65253353 1.0348694 0.82122016 0.85986

RDP_TripleNN_1/Batch_Normalisation_Layer_1_1/batchnorm/sub:0 f4 [96]
00000000: 9998 f9be f08c ebbe 5030 0ebf ff76 b1be
00000010: 625b d6be 4d74 01bf 50b0 14bf 7101 15bf
00000020: 1a16 0fbf 96f0 11bf d1cc 1dbf 20c6 02bf
00000030: 52de a4be bee5 28bf b1ef 03bf 19d8 0fbf
00000040: 8e5d 14bf d5ee f3be 6a8d d9be 0d4b 02bf
00000050: 0cfa 00bf 03d0 fbbe 24d0 28bf 4448 b3be
00000060: 2091 c7be 860d 25bf 2126 0dbf c167 eabe
00000070: 267f 10bf a305 02bf 61c4 16bf 5254 30bf
00000080: e097 29bf 0c8a 02bf 0e44 08bf 2b6c 06bf
00000090: 019a 10bf ce92 ddbe acb4 f2be f777 34bf
000000a0: a142 19bf 0956 0abf a93e fabe 8452 d4be
000000b0: ecd9 e0be f972 0dbf e8cd 13bf 65a5 eabe
000000c0: 6c55 e3be 4e0b 0bbf 26d6 d3be f003 02bf
000000d0: e77c 19bf 09bb ffbe edbf 14bf 6788 09bf
000000e0: da99 1bbf 8fb9 cabe ca2e e8be 3f33 18bf
000000f0: 3422 18bf e49e 13bf 4552 cebe fa1a dabe
00000100: 8f7b 12bf 4ed6 ccbe 5c50 2abf c575 dbbe
00000110: 8883 2cbf 1de9 b2be 9def e7be c489 1cbf
00000120: d08e 09bf f5da efbe 3262 f8be d8ca 07bf
00000130: affa f3be b266 27bf 0c93 2abf d456 10bf
00000140: 56cd f0be f154 16bf 4a84 19bf 45ca 37bf
00000150: 8346 13bf 8631 e6be fec1 04bf beeb e8be
00000160: 1d49 efbe 8ade 17bf 0c1b 0bbf ecd2 01bf
00000170: 66c7 ebbe 6711 24bf 2610 b5be eeb0 c7be
-0.48749235 -0.46005964 -0.5554247 -0.346611 -0.41866595 -0.50568086 -0.5808153 -0.58205324
-0.558931 -0.5700773 -0.6164065 -0.51083565 -0.32200867 -0.6597556 -0.51537615 -0.56189114
-0.57955253 -0.47643152 -0.42490703 -0.5089577 -0.5038154 -0.49182138 -0.659426 -0.35016072
-0.3897791 -0.6447376 -0.55136305 -0.45782283 -0.56444013 -0.5078985 -0.588934 -0.6887866
-0.6624737 -0.5099189 -0.53228843 -0.525088 -0.5648499 -0.43276066 -0.47403467 -0.7049555
-0.5986729 -0.5403753 -0.4887593 -0.41469204 -0.4391626 -0.5525356 -0.57736063 -0.4582931
-0.4440111 -0.54314125 -0.4137432 -0.5078726 -0.5995621 -0.49947384 -0.58105356 -0.5372376
-0.60781634 -0.39594695 -0.45348197 -0.59453195 -0.5942719 -0.5766432 -0.40297142 -0.42598706
-0.57219785 -0.40007252 -0.6652887 -0.4286329 -0.673882 -0.34943476 -0.45299998 -0.61147714
-0.5373354 -0.46846738 -0.48512417 -0.5304389 -0.47652194 -0.65391076 -0.66630626 -0.5638249
-0.4703166 -0.5872336 -0.5996748 -0.71793014 -0.5752947 -0.44959658 -0.5185851 -0.45492357
-0.46735469 -0.5932394 -0.54338145 -0.50712466 -0.46050566 -0.64089054 -0.35363883 -0.39002174

RDP_TripleNN_1/Batch_Normalisation_Layer_1_1/batchnorm/mul:0 f4 [96]
00000000: ec0e ab3f 9845 e73f 27a9 f73f 5b85 0140
00000010: 1de7 a33f e823 f83f b942 1640 3d07 0640
00000020: b662 f53f 9470 d63f 40e5 f73f 1d9f d03f
00000030: 48b9 d63f 94d2 cd3f 7a8e e23f afbd bf3f
00000040: 2552 9e3f 1544 0340 f1eb 1840 190f b13f
00000050: 49df db3f 6f00 f63f 27e3 d63f 8ef4 e53f
00000060: a0e0 603f eb0e f43f fbd0 ce3f fc49 1040
00000070: 574a 0140 1aeb 0940 5c06 1540 4438 db3f
00000080: a3c9 0f40 fcbb 983f 1aa4 be3f 9af7 cd3f
00000090: de18 bd3f 88a6 ae3f 26d5 d43f 9129 993f
000000a0: 96dc ad3f 42ce d63f d093 b23f 862d 963f
000000b0: 8a8b 1a40 a51a aa3f eb3a da3f 79ef c43f
000000c0: c75e 2240 d4ea 883f 55f0 c73f f252 2840
000000d0: 68ee f83f f8e1 8f3f 7956 2a40 79dc f83f
000000e0: bb63 e93f 4b61 973f 1427 803f 7ec5 fd3f
000000f0: 65d1 9f3f 8e83 1240 f924 eb3f 50d2 833f
00000100: 8446 be3f 58f2 933f 14dc f53f 8bbf 0640
00000110: c231 0740 405f b83f 929b 0840 7c2f a53f
00000120: 9979 b03f 413f 953f 0e36 0940 5c8a b73f
00000130: 5340 dd3f adb8 b03f 07e1 f63f 99d9 bf3f
00000140: 4e58 0440 a3f8 ef3f 67d5 bb3f 0054 b13f
00000150: b8ff a43f f07b b73f a005 f43f d10a fb3f
00000160: 35c1 e13f 6507 0740 9976 b53f 37e2 b43f
00000170: ce50 993f aa9b a73f 3cbe a33f 04ab 973f
1.3363929 1.8068113 1.9348496 2.0237644 1.2804905 1.9385958 2.3478224 2.0941918
1.9170749 1.6753106 1.9366837 1.6298558 1.6775293 1.6079888 1.769973 1.4979762
1.2368819 2.0510304 2.3894007 1.3832732 1.7177516 1.9218882 1.6788071 1.7965257
0.8784275 1.9067053 1.6157526 2.2545156 2.0201623 2.1549745 2.3285131 1.7126546
2.246682 1.1932368 1.489383 1.6091187 1.4773214 1.3644571 1.6627548 1.196581
1.3582942 1.6781695 1.3951359 1.1732643 2.4147668 1.3289381 1.704923 1.5385581
2.5370347 1.0696664 1.5620219 2.6300626 1.9447756 1.1240835 2.6615279 1.9442283
1.823356 1.1826566 1.0011926 1.9825895 1.2485777 2.2892795 1.8370658 1.0298557
1.486527 1.1558332 1.9207788 2.1054409 2.112412 1.4404068 2.1344953 1.2905116
1.3787109 1.1659929 2.1439242 1.4339099 1.7285255 1.3806359 1.9287423 1.498828
2.0678897 1.8747753 1.46745 1.385376 1.2890539 1.4334698 1.9064217 1.9612676
1.7637087 2.1098263 1.4176818 1.4131535 1.1977785 1.309438 1.279243 1.1849065
